(1562, 10, 128)
(1562, 1, 10, 128)
False
_________________________________________________________________
Layer (type)                 Output Shape              Param #   
=================================================================
conv2d_87 (Conv2D)           (None, 32, 5, 64)         320       
_________________________________________________________________
conv2d_88 (Conv2D)           (None, 16, 3, 32)         18464     
_________________________________________________________________
max_pooling2d_39 (MaxPooling (None, 5, 1, 32)          0         
_________________________________________________________________
conv2d_89 (Conv2D)           (None, 5, 1, 128)         36992     
_________________________________________________________________
conv2d_90 (Conv2D)           (None, 5, 1, 128)         147584    
_________________________________________________________________
flatten_13 (Flatten)         (None, 640)               0         
_________________________________________________________________
dense_49 (Dense)             (None, 512)               328192    
_________________________________________________________________
dense_50 (Dense)             (None, 256)               131328    
_________________________________________________________________
dense_51 (Dense)             (None, 100)               25700     
_________________________________________________________________
dense_52 (Dense)             (None, 1)                 101       
=================================================================
Total params: 688,681
Trainable params: 688,681
Non-trainable params: 0
_________________________________________________________________
Epoch 1/6
1562/1562 [==============================] - 3s 2ms/step - loss: 1.1364 - acc: 0.6684
Epoch 2/6
1562/1562 [==============================] - 1s 927us/step - loss: 0.5536 - acc: 0.7734
…
